server/gnn/gnn_model.pth (torch, 87853 bytes, 6 tensors)

conv1.lin_l.weight f4 [64, 100]
000000 c8 60 bf 3d c9 25 01 3c 74 37 a7 3d b3 b3 8d 3d
       0.093446314 0.007882544 0.08164874 0.069190405
000010 5b 8a 7e 3d 9d da 0b bc 4b b7 8e 3d 35 8b a4 bd
       0.062143665 -0.008536008 0.06968554 -0.08034364
000020 96 ef a9 bd 0f 51 1a 3d 70 1b 28 3d d8 9e a0 bc
       -0.082976505 0.03767496 0.04104179 -0.019606993
000030 a2 4c 46 3d cd 84 14 3d a2 38 93 3d 76 36 72 bc
       0.048412926 0.03625946 0.07188536 -0.014783492
000040 d2 fe 45 3d 42 d3 e5 3b 58 df 24 3d 3b a1 91 bd
       0.04833872 0.0070137093 0.04025206 -0.071108304
000050 c1 f3 16 bd ef 5a ad 3d e5 20 e9 3d cf 7c 9e 3d
       -0.036853556 0.0846461 0.11383227 0.07738649
000060 c7 9e 76 bd 75 13 e2 bc 6c 4b 93 bd 3d 74 be 3d
       -0.060210016 -0.027597168 -0.0719212 0.092995144
000070 7f 49 ac 3d cf 8d 82 3d 4d 55 b6 3d 0a c4 86 bc
       0.08412456 0.06374704 0.089029886 -0.0164509
000080 40 35 2d bb ea da d6 3d 83 cc ac 3d d9 85 96 bc
       -0.0026429445 0.10490973 0.08437445 -0.01837437
000090 58 81 0e bd 91 11 cb bd 0f 8b 9f bd 69 3e 1e 3d
       -0.03479132 -0.0991546 -0.07790195 0.038633738
0000a0 e3 47 d0 3d 72 7d a9 3d a3 9a 88 3d fe 96 6f 3b
       0.10169961 0.0827588 0.066701196 0.0036558504
0000b0 12 28 64 3d f2 7d 2b 3c 88 1f ef 3c 0d 20 60 3d
       0.055702277 0.010467039 0.02918984 0.054718066
0000c0 0f e8 d7 3d 18 2d aa 3d 4e f5 cb 3c 12 94 be 3c
       0.105423085 0.08309382 0.024897244 0.023263965
0000d0 ba 39 50 3d 95 b1 af bd 54 2a 8b 3d 2a 9d b8 3d
       0.050836302 -0.08578793 0.06795183 0.09014352
0000e0 f6 1a 18 bd 6e 5f f4 bc a1 23 4f 3d 40 b7 5b b9
       -0.037135087 -0.02983066 0.050571088 -0.00020953733
0000f0 56 96 9a 3d 88 96 79 3d d8 c9 1b bd 19 be 33 3d
       0.075482056 0.060934573 -0.03803429 0.043882463
000100 58 07 a5 bd ec 32 95 bd ef 64 94 bd 26 6c 83 3d
       -0.08058041 -0.07285103 -0.07245814 0.06417112
000110 77 b6 ca 3d 14 ad a1 3c 33 a5 b8 3d e3 39 85 bc
       0.09898084 0.01973585 0.09015884 -0.016262954
000120 06 53 80 3d 63 8d e1 3d 34 a4 87 3d 44 92 9a bd
       0.062658355 0.110132955 0.06623116 -0.07547429
000130 24 22 97 3d c4 7f ad 3c 76 2f cd bd cc 56 26 3d
       0.07379559 0.021179087 -0.10018818 0.04061012
000140 be d8 a7 bd 9a e7 79 3d 3d 47 39 3d dd 8b 61 3d
       -0.08195637 0.061011888 0.045233954 0.055065025
000150 4a 7d 36 bd 41 f2 80 3d 1e 98 5b 3d 8d 5a 80 bb
       -0.04455308 0.06296206 0.053611867 -0.0039170445
000160 d1 ea 8e bd 00 bf 2a bd 47 7e a4 3c 0a 25 9e 3d
       -0.069783814 -0.041686058 0.020079745 0.077219084
000170 c3 26 cd 3d 9c db 51 bd 9d 88 60 bd 7b d4 55 3d
       0.10017159 -0.051234826 -0.054817785 0.05220459
000180 ac 23 ce 3d 1e ac 0d bb a6 01 fa bc c3 ff 62 3d
       0.100653976 -0.0021617482 -0.030518364 0.055419695
000190 91 df 99 3c 2d e6 43 3d 50 ba 89 3d d6 dd 17 3d
       0.018783363 0.047826935 0.067249894 0.037076794
0001a0 71 f0 89 bc 88 42 82 3d 38 e9 aa 3d f8 7a 5b bc
       -0.016838284 0.06360346 0.08345264 -0.013396017
0001b0 0a c5 11 3c f2 a4 8c bd 17 9a 93 bc 0d e3 47 bd
       0.008897075 -0.06867398 -0.018017812 -0.048800517
0001c0 01 5d 8a bd e1 6a 85 bc a2 24 9a 3d 5c 0a 8d 3d
       -0.0675602 -0.016286315 0.075265184 0.068867415
0001d0 5c bf 24 3c d3 46 3e 3d 20 90 74 bd c9 17 72 3d
       0.010055389 0.046454262 -0.05970776 0.059104715
0001e0 9e ef 1f 3c ec 41 8f 3d 07 c5 1f 3d 62 73 6d 3d
       0.009761719 0.069949955 0.03900626 0.057971366
0001f0 7a 67 a0 bd 18 89 c1 bc a3 a4 74 bd 29 1c 88 bd
       -0.078322366 -0.023624942 -0.059727322 -0.06645996
000200 81 8d 76 3c 03 b5 90 bd a3 3e 4a 3d 6e 15 45 3d
       0.015048386 -0.07065775 0.04937614 0.04811614
000210 6e a2 2c bd 83 6d 52 3c a3 00 98 3d a3 d1 c8 3d
       -0.042147093 0.012843492 0.074219964 0.0980561
000220 08 e6 c3 3d 87 c2 3d 3d 60 98 42 3b 8b 32 11 3d
       0.09565359 0.046328094 0.0029692873 0.035448592
000230 52 35 4a bd 0c d4 95 bb 8f bf 88 3d 34 ab 58 3d
       -0.049367256 -0.004572397 0.06677162 0.052897647
000240 f2 ad 7d bd fa 64 4e bc e7 84 15 bd 93 f5 f0 bb
       -0.061933465 -0.012597317 -0.0365037 -0.0073534935
000250 35 43 16 3c a4 c4 b9 3d 09 98 9c 3d b2 a4 b9 b9
       0.009171297 0.09070709 0.07646186 -0.00035408657
000260 bf bf 77 3d 6e 3d 14 bd 8f b1 bc 3d 0d e4 07 bd
       0.060485598 -0.036191396 0.09213554 -0.03317647
000270 2d ee 02 bd ab 80 cf 3b b9 5f af bd a1 f4 e2 bc
       -0.031965423 0.006332477 -0.085631795 -0.027704539
000280 86 1f b5 bd 6a df 44 bc c8 42 97 3d 37 3c e9 3c
       -0.08843903 -0.012016157 0.073857844 0.028471095
000290 e3 66 a9 bd 16 15 82 3c 18 45 1d bd 7f 36 8a bd
       -0.08271577 0.015879195 -0.03839597 -0.067486756
0002a0 6a 32 b5 3d 07 0c d0 bc 96 8a 89 bd c8 36 b2 3d
       0.08847506 -0.02539636 -0.06715886 0.08701855
0002b0 39 b7 28 bd 48 6f 19 bd d1 90 93 bd 5b 81 db 3c
       -0.04119036 -0.03745964 -0.07205356 0.02679508
0002c0 6f 88 c0 bd b1 11 ac bd 67 9b da bd a2 7c 74 3a
       -0.09401023 -0.08401812 -0.10674172 0.0009326433
0002d0 e2 91 93 3d 3d f2 66 bd fb c1 c6 bc e4 35 8a bd
       0.07205559 -0.05638336 -0.024262419 -0.0674856
0002e0 12 f9 c5 bd ca 8f c4 3d bf 2e a7 3d 0a 43 6a bd
       -0.09666647 0.09597738 0.08163213 -0.05719284
0002f0 48 f2 f3 bb d6 ee 95 3d ea 03 98 3d 83 c4 ab 3d
       -0.0074446537 0.07320945 0.074226215 0.08387091
000300 12 54 53 bd 47 c4 5c 3c ba 62 21 bd b6 3d 00 bd
       -0.051593848 0.013474531 -0.039400794 -0.031308852
000310 d3 e2 7e 3d 50 8d e3 bc 53 75 40 bd 5d 3c 83 bd
       0.062228035 -0.027777344 -0.04698689 -0.06407998
000320 ac 83 f0 bc cc 68 ec bc e4 41 53 3d c2 02 aa 3c
       -0.029359661 -0.028858565 0.05157651 0.020753268
000330 e7 f7 92 bc ee d5 cd 3d c8 fe 25 3d eb 60 c4 3d
       -0.017940475 0.100505695 0.04052618 0.09588798
000340 46 ae dd 3d ac 56 09 3d 69 ee e3 3c 2b 19 21 bd
       0.10824256 0.033529922 0.027823644 -0.039330643
000350 c3 4f 8c 3c 39 42 47 bd 9a cb 9b 3d 79 4b 75 3c
       0.017127877 -0.04864714 0.07607193 0.014971607
000360 76 78 5c 3d 75 bd 18 bd 8f 0b fd 3b bc c1 d3 3d
       0.053825818 -0.037290055 0.007722325 0.10339686
000370 80 e2 58 3d 37 dc b7 3d 66 a9 39 bc 0d 76 f2 bc
       0.052950382 0.089775495 -0.011331892 -0.029597307
000380 b0 2f 3a 3d 3b 7e d7 3d e5 e6 d1 3c 4d 49 82 bc
       0.045455635 0.105221234 0.025622794 -0.015904093
000390 88 49 b6 bc f2 ea 30 3c c2 82 7b bd ec 55 9b 3c
       -0.02225186 0.010798203 -0.061403997 0.01896187
0003a0 98 f4 33 bc 2e 48 83 bd 0f 23 c2 bc 14 54 cd bc
       -0.010983609 -0.064102516 -0.023698358 -0.025064506
0003b0 57 71 80 3d c8 76 33 bd a1 0b 2c 3c 48 8b f3 bc
       0.06271618 -0.04381445 0.010500819 -0.0297295
0003c0 92 5c 1e 3c 74 2c 5b bd 0f 9d 68 bd c0 a8 46 bd
       0.009665625 -0.05350919 -0.056790408 -0.048500776
0003d0 d0 ca 14 3c 47 a3 0b bc 6c ac 10 3d e0 c4 71 3d
       0.009081557 -0.008522815 0.035320684 0.059025645
0003e0 57 a8 b3 bd 8a 67 5a bd 04 d4 b4 3d 6b 3e 38 3c
       -0.08772343 -0.0533214 0.08829501 0.01124535
0003f0 00 3a 5c bd ff 95 8f 3c 0b 02 2b bd f9 40 6c bd
       -0.05376625 0.017527578 -0.041749995 -0.05767915

conv1.lin_l.bias f4 [64]
000000 3d 23 68 bd 47 7a f2 bc e5 7b 57 3d 4b b4 aa 3d
       -0.05667423 -0.029599322 0.05260839 0.083351694
000010 eb 70 79 bd 5a d0 7b 3b 65 cc a5 bd fc 7d 68 3d
       -0.060898703 0.0038423748 -0.08095626 0.056760773
000020 1c fb 1b 3d 56 d4 23 bd a0 93 0c bd 63 eb a5 3d
       0.038081273 -0.03999742 -0.034320474 0.08101537
000030 be b5 81 bd 55 90 b0 3d b8 6a 49 bd a0 aa bc 3d
       -0.06333493 0.08621279 -0.04917404 0.09212232
000040 b7 7f c2 b8 36 28 5b bd d4 bd 55 3b 1e 94 d2 3c
       -9.2744296e-05 -0.053505145 0.0032614367 0.025705393
000050 3e aa a2 3d ce c5 5b 38 26 b0 cc 3c e9 f6 95 3d
       0.07942627 5.239789e-05 0.024986338 0.07322485
000060 64 b3 7d bd 07 e5 89 3d ce 8a 79 3c a0 d1 ea bc
       -0.06193866 0.067331366 0.0152308475 -0.02866441
000070 d7 d1 9e 3d 58 74 27 bd 38 1a 28 ba bd 8c dc 3b
       0.077548675 -0.04088244 -0.00064125983 0.0067306445
000080 d0 26 50 bd 4c 27 4a 3d 73 21 c8 bd e5 5a b5 3d
       -0.050818264 0.049353883 -0.09772005 0.088552274
000090 72 f1 6e 3b 77 1b f7 bc fd fa 9d 3d 64 ff 10 3b
       0.003645983 -0.030164463 0.07713888 0.002212488
0000a0 41 65 d5 3c 62 c8 61 3d 14 e9 b6 3c 8c 81 53 3d
       0.026049258 0.05512274 0.022327937 0.051637217
0000b0 79 ea 82 3d 81 28 80 bd b3 75 8b bd 33 b0 b7 3c
       0.06392378 -0.062577255 -0.06809559 0.022422886
0000c0 51 22 b2 3c b9 aa 9c bd 4a 4d a3 3d cf cf a3 bd
       0.021744879 -0.0764975 0.07973726 -0.07998621
0000d0 20 94 04 3d c0 4d 56 3d 2a 72 9c bd 78 45 a1 3c
       0.032367826 0.052320242 -0.076389626 0.019686446
0000e0 b3 0b 13 3c 18 07 c0 3d 30 c5 dc 3c f8 b5 ac 3d
       0.008974957 0.09376353 0.026949495 0.08433145
0000f0 98 42 0a 3d 94 06 ad 3b c8 51 7b bd f0 8a ba 3d
       0.033754915 0.005280325 -0.06135729 0.091085315

conv1.lin_r.weight f4 [64, 100]
000000 40 ee 06 bd 55 cc 8e 3d 17 e0 2a 3d ae 76 cf bd
       -0.032942057 0.06972567 0.041717615 -0.10130058
000010 04 c9 6f 3c a9 65 b1 3c 8e 37 a7 3c 19 cb a8 3d
       0.014635328 0.02165492 0.020412233 0.08241863
000020 b7 52 a8 3d 2c 90 1e 3d 3e 86 e0 bd 16 46 61 bd
       0.082189016 0.03871171 -0.10963105 -0.05499848
000030 b6 a4 94 bd d9 d4 72 3d ee 37 9c 3d 77 9f 77 bd
       -0.072579786 0.05928502 0.07627855 -0.060454812
000040 57 65 b5 3d a7 cf 4d 3d e2 e1 7e bd 97 e5 4b 3d
       0.0885722 0.05024686 -0.062227137 0.0497795
000050 6f bf 94 bc 4c d3 8a bc a6 71 d9 bd bd 53 ba 3d
       -0.018157689 -0.016946457 -0.1061738 0.09098003
000060 ce 4f 6a 3d 84 65 b8 3d b4 a1 8d 3d e8 d1 d3 bc
       0.057205014 0.090037376 0.06915608 -0.025856927
000070 b3 17 d0 bc 92 da e4 bc 46 cc 08 3d 5b bc a4 3d
       -0.025401926 -0.027936254 0.033397935 0.080437385
000080 3a 42 bb bd ac cd 26 3b 67 7a bb bd 4d d3 f6 bc
       -0.09143491 0.002545218 -0.09154206 -0.030130053
000090 c4 c3 c0 bc 0f 80 99 bd 81 48 87 bd 22 7e 28 3d
       -0.023530848 -0.07495128 -0.06605626 0.041135915
0000a0 08 58 48 3a bf 54 97 3d 4e 03 98 3d f3 60 b2 bd
       0.0007642512 0.07389211 0.07422505 -0.08709898
0000b0 0b f5 b9 bd 9c d2 8a 3b f6 be b1 3d 5a eb a1 bd
       -0.09079941 0.0042365324 0.08679001 -0.07906218
0000c0 73 d4 29 3d 22 51 4b bc 4b a1 07 3d 29 4d 62 bd
       0.041462373 -0.01240948 0.033112805 -0.055249367
0000d0 fe 15 6e bc cb bf 92 bd 5f c9 84 3d 14 a1 a2 3c
       -0.0145316105 -0.07165488 0.06483721 0.019852199
0000e0 d2 81 8b 3d e8 af dd bc 3e cf 88 3d c8 ad a3 ba
       0.06811871 -0.027061418 0.06680153 -0.0012487704
0000f0 6d 2e 98 3d e0 94 e8 bd f2 82 8f 3d 88 e4 8a bc
       0.0743073 -0.11356521 0.07007398 -0.016954675
000100 bd bf 8e bd eb 67 83 3d 73 25 d3 bd 20 a3 bc bc
       -0.06970165 0.06416305 -0.10309877 -0.023027003
000110 3a fb be 3d 73 78 a6 3c 9b c9 2d bd 9b fc d7 bd
       0.093252614 0.020321107 -0.042428594 -0.105462275
000120 07 dc a5 3c dc 97 64 bd ff 43 b3 bd 93 d1 0d bd
       0.020246519 -0.055808887 -0.087532036 -0.034623694
000130 6f bb 28 bb 50 11 b5 bd dd 79 3c bd 48 61 f1 3c
       -0.0025746485 -0.08841193 -0.046014655 0.029465333
000140 44 be e7 b9 03 54 20 3d 90 fe 9f bd 13 ce c9 3b
       -0.00044201512 0.03914262 -0.07812226 0.006158599
000150 88 a8 c6 bd 56 41 2d bd be 73 68 bb 45 7c a8 bc
       -0.097001135 -0.042298637 -0.0035469378 -0.020567069
000160 eb 58 39 bd 4a ae 34 3d 7a 1f 82 3c 4c 01 41 3d
       -0.045250814 0.044111528 0.01588415 0.047120377
000170 39 4a b1 bd e3 ed b6 bd 71 9f b1 3c d1 60 a9 bc
       -0.08656735 -0.08932092 0.021682473 -0.020676048
000180 cd 15 8a bd 61 76 a2 bd 00 6f 58 bd f6 74 04 3d
       -0.067424394 -0.07932735 -0.052840233 0.032338105
000190 c7 8e dc 3d 32 8b 29 bd 12 e1 86 bd c2 c4 ba 3d
       0.1076942 -0.041392513 -0.065858975 0.0911956
0001a0 e6 fa 6e bd 0e 59 25 bd 00 65 98 bd f1 ea 3a 3d
       -0.058344744 -0.040368132 -0.07441139 0.045634214
0001b0 09 b4 92 3d 43 c6 af 3d f1 27 b3 bd d3 dd 90 bd
       0.07163245 0.08582737 -0.087478526 -0.070735596
0001c0 e7 e8 84 3d b2 0f 29 3c 3a b5 84 bd e6 6b ee 3c
       0.06489735 0.010318683 -0.06479879 0.029104184
0001d0 1f 4b 84 bc 23 07 06 3d e6 d3 55 3c e8 0e 84 3d
       -0.016149102 0.03272165 0.013051009 0.06448156
0001e0 d3 2a 8f 3d 6c 70 ec bc cc b9 94 3d 28 9e 4f 3d
       0.0699059 -0.0288622 0.072620004 0.05068794
0001f0 e6 b9 b9 3d 2c 90 af 3b 97 53 b3 3c 11 56 1d 3b
       0.090686604 0.005357763 0.021890445 0.0024007598
000200 b1 24 3c 3d 7e 30 2d bd d4 af a8 3d 01 9c 6e bc
       0.04593343 -0.042282574 0.082366616 -0.014563561
000210 96 00 15 bc dc be b6 bd 54 dd a6 bd 76 95 7d 3d
       -0.009094378 -0.08923122 -0.08147684 0.061910115
000220 f2 c5 bb 3d ca 30 c0 3c 4a 60 3a bd 70 f6 ca bc
       0.091686144 0.023460764 -0.045501985 -0.024775714
000230 75 e5 a7 3d bb 50 42 3d ca 85 cd 3c 08 82 f4 3b
       0.08198062 0.04744027 0.02508821 0.00746179
000240 5c d6 b6 3d 67 cb d2 3d 38 f9 23 3d 93 58 46 3d
       0.089276046 0.10292702 0.040032595 0.048424315
000250 ec 49 63 bd 39 1f 52 3d 53 1f 03 3d 56 d0 a8 3c
       -0.05549042 0.051299307 0.032012295 0.020607155
000260 b0 5f 85 bd 6c f6 8d bd a4 8b 9a 3d c2 24 3a 3b
       -0.065123916 -0.06931767 0.075461656 0.0028403257
000270 e0 ed 82 3c 16 55 1c bd eb 21 8d bd 42 92 4d bd
       0.015982568 -0.03816708 -0.06891235 -0.05018831
000280 33 fb be 3d 3f 7e 2d bd b7 e4 5f 3d 05 44 95 bd
       0.09325256 -0.042356726 0.05466148 -0.07288364
000290 33 8f 30 bd df 69 b8 3d f5 86 b6 bb c6 0e 23 bd
       -0.043105315 0.09004568 -0.0055702874 -0.03980901
0002a0 33 8c 10 bd 8c 43 58 bd 5c 67 dc 3c 71 84 87 3d
       -0.035289954 -0.052798793 0.026904754 0.06617058
0002b0 86 44 a0 3d a5 a1 d5 3d 9c 1c d5 bc 9d e8 22 3d
       0.0782557 0.10431222 -0.026014619 0.03977262
0002c0 54 e2 a3 3d 94 75 88 bb c2 df b3 3c ed b2 9d bd
       0.08002153 -0.004164407 0.021957282 -0.07700143
0002d0 b9 b6 74 3d 15 c9 9a 3d a9 15 62 3c dd d8 38 3d
       0.05974457 0.075578846 0.0137991095 0.045128692
0002e0 8b 6b d8 3d 62 0a 2b 3d 02 00 0e 3d 39 1d ac bb
       0.10567387 0.04175795 0.034667976 -0.005252507
0002f0 e4 0c 9f 3c 95 86 5e 3d f0 17 ca 3d e3 41 44 3c
       0.019415326 0.054327566 0.09867847 0.011978599
000300 c5 67 84 bd ed 90 b0 bd 22 3d 6f 3d 6b 33 bf 3c
       -0.06465105 -0.086213924 0.05840791 0.023339948
000310 af 08 4b bd 55 e0 85 3c 8a 0e b8 bc f4 bc 55 3d
       -0.04956883 0.016342321 -0.02246787 0.052182153
000320 5f ba 47 bd 2c 38 9b 3d 4a df ae bd e1 dd 3b 3d
       -0.04876172 0.07579073 -0.08538683 0.045865897
000330 60 16 b0 3c d5 d9 60 3d 15 74 d0 3c 52 14 24 bd
       0.021495044 0.05489524 0.025445977 -0.04005844
000340 b6 a7 47 3d ea f2 a5 3d 3a 6e c8 3c 5a 96 2b 3d
       0.048743926 0.08102973 0.024466623 0.041891433
000350 21 0c 8d bd 4a e0 3f bd 21 57 19 bd f5 18 a3 3b
       -0.06887079 -0.046844758 -0.03743661 0.0049773403
000360 cd a6 82 3d 62 15 e8 3c 2c 5d 17 3c 53 bd 7a 3c
       0.06379471 0.028330509 0.0092385225 0.0153039275
000370 4c 03 c0 bd 94 b6 19 bd c8 90 28 bd 9d 7d cf bd
       -0.09375629 -0.037527636 -0.0411537 -0.10131381
000380 75 bd ab bd 43 d3 07 bd b4 96 53 bd d2 cc e8 3b
       -0.083857454 -0.03316046 -0.051657394 0.0071044946
000390 62 9e 72 3d 15 6c 23 bd ac b8 cc bd cb 50 c4 bb
       0.059233077 -0.039897997 -0.09996161 -0.0059910766
0003a0 47 60 8c bc 43 4e a2 3d bb 74 dd bd 0f 18 7c 3d
       -0.017135752 0.079250835 -0.1081328 0.06154638
0003b0 a8 de 83 3d c2 a4 ec 3c 4e 97 a4 3d 20 28 91 3d
       0.06438953 0.028887156 0.080366716 0.07087731
0003c0 4b 9a 13 bd 58 9f bd 3d 6f 11 cd 3b 04 78 c1 3c
       -0.036035817 0.09258908 0.0062581818 0.023616798
0003d0 2e e9 1b 3d 73 6f 98 bd b6 54 1b 3d 2d 42 b6 bd
       0.038064174 -0.07443132 0.037922584 -0.08899341
0003e0 12 30 3f bc e3 8f d7 bd f8 74 1b 3d 2a 60 d9 bd
       -0.011669176 -0.10525491 0.037953347 -0.10614045
0003f0 fe 13 b3 bc 9c 5b 30 bc c2 65 b1 3d 44 d5 a7 bd
       -0.021860119 -0.010764029 0.08661987 -0.08194974

conv2.lin_l.weight f4 [64, 64]
000000 9c 9f b9 bd 08 dd 58 3d 9f 26 da 3d 87 e2 77 bd
       -0.09063646 0.052945167 0.10651898 -0.060518768
000010 fb 84 42 3d 11 d0 c5 bc 47 25 cb 3d e0 cd d0 bc
       0.0474901 -0.024147065 0.099192195 -0.025488794
000020 00 fb fd bd 41 16 db bd 66 27 f2 3b 20 1a 0d bd
       -0.1240139 -0.10697604 0.0073899506 -0.034448743
000030 fe 44 65 3d d8 fd 3b bd cb 50 b7 bd ff 8d 14 bd
       0.055974 -0.04589638 -0.08950957 -0.03626823
000040 6e b1 d2 bd 5b fb e8 bc 48 f3 c2 3d 8b 10 d8 3c
       -0.10287748 -0.028440168 0.095190585 0.026375076
000050 88 d7 29 bd d8 ec 97 3d a3 26 cd bd 13 6a 3f 3d
       -0.041465312 0.07418221 -0.10017135 0.04673202
000060 fe be 66 3b e9 fa c0 bd b5 74 c4 bd e8 20 02 3b
       0.0035209055 -0.09422857 -0.095925726 0.001985604
000070 af 12 03 bd fc 6a ef 3c b6 29 93 bd 2d ef d5 3d
       -0.03200024 0.029225819 -0.0718569 0.1044601
000080 75 94 ea bd b0 a1 b5 3d 02 09 91 bd 6a 2b ac 3c
       -0.11454097 0.0886873 -0.07081796 0.021016795
000090 49 47 bd 3d d8 41 80 bd 80 75 e2 bd 93 a0 b2 bd
       0.09242112 -0.06262559 -0.110575676 -0.08722033
0000a0 37 80 a4 3d e2 5d da bd f7 68 1a 3d 98 fd a4 3d
       0.080322675 -0.10662438 0.03769776 0.08056182
0000b0 d5 0c d4 3d ba 87 de 3c 28 01 07 be bc 1d b5 bd
       0.1035401 0.027164329 -0.13184035 -0.08843562
0000c0 9c 4d ef bd f0 75 30 bd e9 cb d1 bc 94 3a 67 3d
       -0.11684725 -0.043081224 -0.025609927 0.05645235
0000d0 c7 25 e4 3d a1 ba 36 3c b6 fe 94 3c 66 bd 2e 3d
       0.11140018 0.011152894 0.018187862 0.042661093
0000e0 19 44 3b bd 1d 30 a7 3d ad 05 ef bd 5a 27 08 3c
       -0.04571924 0.08163474 -0.116710044 0.008310163
0000f0 c8 ae 49 bd 8e e7 d0 bd 4c 30 76 bd a7 52 6d bd
       -0.04923895 -0.102004156 -0.060104653 -0.05794015
000100 bf 5c 44 3d f2 22 9b 3d 4d 29 98 3d 63 da 86 bc
       0.047940012 0.07575025 0.074297525 -0.016461557
000110 d6 e8 93 bd 91 41 b2 3c fe 1e d4 bd bf 98 d7 bc
       -0.07222144 0.02175978 -0.10357474 -0.026317952
000120 2d 7e c3 3d de 02 c6 3d 98 c4 de bd 49 0d fd 3c
       0.095455505 0.096685156 -0.10877341 0.030890124
000130 a1 9c 84 3d d9 7e 68 bd c7 ba 37 3d 1a 32 d3 bd
       0.06475187 -0.056761596 0.04485586 -0.103122905
000140 fb ce fa 3d 9f 5d 22 3d ab 01 b4 3d 37 fb b7 bd
       0.1224651 0.039640065 0.08789381 -0.08983462
000150 c9 29 b0 3d 9e 17 a9 bd 36 18 9f 3d 4f ff d8 3d
       0.0860172 -0.08256458 0.0776829 0.10595571
000160 0d 4c b0 bd 2a 2b ed bc e8 5c b9 3d f1 c7 d7 3c
       -0.086082555 -0.028951246 0.090509236 0.026340457
000170 5d ae f6 3d 3f 65 df bc dd 32 d6 bc 33 70 db bd
       0.12044976 -0.027269958 -0.0261473 -0.1071476
000180 86 fc 5a 3d 73 15 00 be bd b4 58 3d 28 eb d5 3d
       0.05346348 -0.12508182 0.05290674 0.10445243
000190 4a 5a 30 3d d9 08 a9 3d 20 31 33 bd 84 34 e6 bd
       0.043054856 0.08253641 -0.04374802 -0.11240485
0001a0 f5 50 0a bd c7 76 ab 3c 6d ec d0 3d 53 26 23 bd
       -0.033768613 0.02093066 0.10201345 -0.03983147
0001b0 25 1d 08 3d 0c b7 4f bd 5a 21 31 3d 88 03 41 3c
       0.03323092 -0.050711676 0.043244697 0.011780627
0001c0 ef bc 91 bd e7 3c 00 3e b6 8f 03 bc 87 30 06 3e
       -0.07116114 0.12523232 -0.008029869 0.13104449
0001d0 af 54 87 3d 78 46 09 3d a6 82 68 bd 7f f8 d7 bd
       0.06607949 0.03351447 -0.05676522 -0.10545444
0001e0 26 77 92 3d 68 06 87 3c 18 79 9f 3d 9b 5a 2e 3d
       0.07151632 0.016482547 0.07786769 0.042566877
0001f0 31 3b 50 3c 8a f9 d4 3d f8 68 ce bd 02 84 74 bd
       0.012709425 0.10399158 -0.10078615 -0.059696205
000200 70 39 6a bd cb 26 91 3d 6e a6 b2 3d c5 0a 24 bb
       -0.057183683 0.07087477 0.0872315 -0.0025030833
000210 4b 7b b1 3d 07 b6 d4 3d d0 a7 72 bc 90 4a 9b bd
       0.086660944 0.103862815 -0.014810517 -0.07582581
000220 0d aa 93 bb 93 27 df bc 79 c9 7d 3c a1 f5 fd bd
       -0.0045063556 -0.02724055 0.015489929 -0.124003656
000230 71 c3 77 bd 3a 08 58 3d 0c 07 75 bc 9a 73 ab bc
       -0.06048912 0.05274222 -0.014955293 -0.020929147
000240 c2 6d ed bd 9c d7 de 3d 3d 1f 5e bd 3a 4f 01 be
       -0.115932 0.10880968 -0.05422901 -0.12627879
000250 b3 18 a5 bd 62 f6 dc 3d 1a 6b b8 bc 93 3f be 3c
       -0.080613516 0.10789181 -0.022512008 0.023223674
000260 1f b0 3c 3d 62 6f 53 3d 9d e5 d8 bc 99 91 fe 3d
       0.0460664 0.051619895 -0.026476676 0.12430114
000270 4f b3 20 3d ac e8 a4 bd 8e 92 c9 b9 08 e0 df bc
       0.039233502 -0.08052191 -0.000384469 -0.027328506
000280 72 50 31 3d 43 e9 db bd 0c 6b 34 bd 8c fc 25 bd
       0.04328961 -0.107378505 -0.0440474 -0.04052405
000290 53 4f 6e bd 64 71 20 bd 57 23 9d bd e4 71 d7 3d
       -0.05818112 -0.039170638 -0.07672756 0.1051977
0002a0 1c 60 be bd c4 f9 97 3b 49 7c 90 bc 11 43 7f bd
       -0.09295675 0.0046379287 -0.017637389 -0.06231982
0002b0 21 6f 42 bd 41 dc 51 bc 74 67 22 bd e5 56 b5 bc
       -0.047469262 -0.01280886 -0.03964944 -0.022136161
0002c0 ac 4a d1 3c 96 f7 9c 3d 4e f1 9a bc 2e cf cc bc
       0.025548302 0.07664411 -0.018913891 -0.025001135
0002d0 43 e4 43 bd dc bb 00 be 3b 2b 7e bd 23 dc d6 3d
       -0.04782511 -0.12571663 -0.062052947 0.104912065
0002e0 19 3a bb 3d fe a3 cc 3b 15 2b 63 bd d8 e8 00 be
       0.091419406 0.0062451353 -0.055461008 -0.12588823
0002f0 b2 9e a8 3b 1a 18 84 3d fd 82 03 be ed 84 fe bd
       0.005145871 0.064499095 -0.12842937 -0.12427697
000300 31 51 d5 bd 57 3b f7 bd d1 91 62 bd 9e 69 1a bd
       -0.10415877 -0.12071865 -0.055314843 -0.03769838
000310 d1 39 64 3d 21 89 d8 3d 30 40 87 3d 25 e7 9c bd
       0.0557192 0.1057303 0.0660404 -0.07661275
000320 95 76 a1 3d 6b 73 af bd b8 9a e7 bd 6d fc a9 bc
       0.07883946 -0.08566936 -0.11308807 -0.020750249
000330 8a 29 d4 3d a0 e6 76 bc b7 c0 fb 3c e9 0a d2 3d
       0.103594854 -0.015069634 0.030731542 0.10255987
000340 82 70 fd bd ae 8e d4 bd cb 30 35 3d ee 3f 80 bd
       -0.12374975 -0.103787765 0.044235986 -0.062621936
000350 5a d2 a6 3c 3a ec 56 bd 9c f3 4d 3d 59 3b a8 bd
       0.020363975 -0.052471377 0.050281152 -0.08214445
000360 15 a2 1e 3c 89 48 87 3c 97 9c 2a bd 8e 5b 4c bd
       0.009682198 0.01651408 -0.041653242 -0.049892
000370 5c e4 a2 3d 77 af 41 3d 86 1a 93 bc 2c 62 e9 bd
       0.07953712 0.047286477 -0.017956983 -0.11395678
000380 7a 32 f1 bd 27 44 1d ba 05 02 81 3d ea df d5 3d
       -0.11777206 -0.000599923 0.06299213 0.10443099
000390 50 87 fa bd e5 cf 78 3d 9c 1a f1 bd 1b 0c 89 bd
       -0.1223284 0.06074514 -0.117726535 -0.06691762
0003a0 00 26 9f 3d 11 b8 b8 bc 2f ac bc bd be 72 ad 3a
       0.0777092 -0.022548707 -0.09212529 0.0013233048
0003b0 f5 66 27 bd 49 b7 19 bd a6 ed b0 3d d6 25 c5 bd
       -0.04086967 -0.03752831 0.08639078 -0.09626357
0003c0 63 a2 ea 3c 2d 9a 34 bd 16 92 2c 3d 99 da a0 bd
       0.028641885 -0.044092346 0.042131506 -0.07854194
0003d0 09 f6 5e bd 6c 3e 9e bd 9c 8a c8 bc 13 17 58 bd
       -0.054433856 -0.0772675 -0.024480157 -0.05275638
0003e0 99 78 81 3d f9 e4 6a 3d 4d c5 bd bd af 1e c9 bd
       0.0632183 0.05734727 -0.09266148 -0.098203056
0003f0 45 2b 7d bd 02 00 b4 3c 97 a7 dc 3d 7b 40 84 bd
       -0.061808843 0.02197266 0.10774153 -0.06457611

conv2.lin_l.bias f4 [64]
000000 b2 52 d3 bd 0e 4b 98 bc 18 cd cc bc 89 01 68 3d
       -0.10318507 -0.018590476 -0.02500014 0.05664209
000010 db e4 ad bb 0a 93 fa bc 02 a3 4d 3a 66 53 b5 bc
       -0.0053068227 -0.030587692 0.00078444195 -0.022134494
000020 dc bb 30 bd 13 82 c5 bd 46 64 0e bd a7 ed 56 3d
       -0.043147907 -0.0964395 -0.034763597 0.052472737
000030 8b 0b a2 3d 1a 11 8b bd dc 2f 12 bd 56 29 25 3b
       0.07912358 -0.06790371 -0.035690174 0.002520164
000040 c7 e8 07 bc 14 ad 87 bd 27 6f ac bc af cc 29 3d
       -0.008295245 -0.06624809 -0.021049095 0.041454967
000050 0b ab 45 3d e8 e4 75 bd 01 b7 4c bd 0f 5c b6 bc
       0.048258822 -0.060032755 -0.049979214 -0.022260694
000060 4b 54 9d bc eb 92 2d 3d b6 fa 4e 3d 29 85 e1 bd
       -0.019205233 0.04237644 0.050532065 -0.110117264
000070 38 84 a7 bc 57 73 37 3d f7 8c 01 3c ad fa b3 3d
       -0.020448789 0.04478773 0.007907144 0.08788047
000080 59 cd f8 bc 20 a0 80 bd 6b 71 2e bd 22 8b bb 3d
       -0.030371355 -0.062805414 -0.042588633 0.09157397
000090 00 9f c8 3d ef ce 8c 3d dd d5 d6 bd aa 99 07 3c
       0.09795952 0.06875407 -0.1049001 0.008276382
0000a0 95 b4 0b 3d cf 94 8c 3d 65 61 40 bd 5b 8c f0 bd
       0.034107763 0.068643205 -0.046967883 -0.11745521
0000b0 e9 9d 99 bd eb aa 4d 3b e0 73 89 3d f0 89 a8 bd
       -0.07500822 0.0031382393 0.067115545 -0.082294345
0000c0 80 49 26 3d 43 82 8c 3d b3 26 e6 3b d8 e7 1d bd
       0.04059744 0.06860783 0.0070236563 -0.03855118
0000d0 a8 65 d1 3c 34 3b f4 3c 0b ee 8b 3d af be b9 3d
       0.025561169 0.029813386 0.068325125 0.09069573
0000e0 55 6e 87 3d db c3 c0 bd 30 1a d6 bd 0b 10 c2 3c
       0.06612841 -0.094123565 -0.104542136 0.02368929
0000f0 68 dc 6b bd 2a 34 45 3d 87 b0 36 bd 3c be 8b 3d
       -0.057583243 0.04814545 -0.044601943 0.06823394

conv2.lin_r.weight f4 [64, 64]
000000 9c 43 7e bd 35 58 c0 bd d7 0f 29 3d 0f d6 24 3c
       -0.062076196 -0.09391824 0.04127487 0.010060801
000010 ef 4a ca bd 25 5a 45 bd 26 22 ed 3c df d2 a4 3d
       -0.09877574 -0.04818167 0.028946947 0.08048033
000020 25 06 0c bd a5 33 a7 3d 0d 97 a4 3d fd 28 03 3d
       -0.034185547 0.08164147 0.08036623 0.03202151
000030 56 ba a0 bd c4 1b 91 3d 7c 6e d7 3d f8 c1 d1 3c
       -0.07848041 0.07085374 0.1051912 0.025605187
000040 1d 7b 04 3e af bb a2 3b 87 5d ca 3b 0e e8 77 3d
       0.12937589 0.0049662213 0.0061757 0.06052404
000050 d7 f3 3a bd f0 77 8c 3d d9 ed 88 3d df b2 ab 3d
       -0.0456427 0.06858814 0.06685991 0.08383726
000060 b5 66 45 bd 9e eb fa bb 89 b2 00 3e c3 20 48 3b
       -0.048193652 -0.0076574823 0.12568106 0.0030537106
000070 a0 41 d1 3d ef 67 75 bd fe cf bc 3b d7 83 c3 3d
       0.10217595 -0.059913572 0.0057620993 0.09546631
000080 a9 d4 fd bc 70 32 6f bc 96 e0 ff 3d 04 99 07 3c
       -0.030985193 -0.014599428 0.12494008 0.008276228
000090 1e c2 d6 3d 26 8c 0b 3d 4d 5e e9 bb fc 23 d7 bd
       0.10486244 0.034069203 -0.007121837 -0.1050491
0000a0 a4 cc 63 3d 79 a1 f8 3d 05 87 88 3d 61 87 6f 3d
       0.055615082 0.121401735 0.06666378 0.058478717
0000b0 13 49 05 3e 32 73 bd 3d 85 60 a8 bd 98 ed fb 3c
       0.13016157 0.092504874 -0.08221535 0.030752942
0000c0 b2 b9 bd 3d 74 b5 ca 3d d4 ac 4b bc 8d 94 31 3c
       0.09263934 0.09897891 -0.012431342 0.01083864
0000d0 e2 f8 d6 3d 14 6c 1d 3d 0d b3 99 bd 92 97 a7 3d
       0.104966894 0.03843315 -0.07504854 0.081832066
0000e0 24 cd f7 bc f8 35 28 3c 6d f2 87 3d 32 2a bb bd
       -0.030249186 0.010266773 0.06638036 -0.091389075
0000f0 14 68 11 3e f3 d1 8f bd 2b 72 17 3d 5d 65 b6 bd
       0.14199859 -0.070224665 0.036974113 -0.08906052
000100 a6 74 ad 3d a7 b9 c7 3d 07 05 62 bd 04 b9 cf 3d
       0.084695145 0.09752207 -0.055180576 0.10142711
000110 c6 8d f8 3c bd 75 18 3c d5 39 93 3d 29 54 df 3d
       0.03034104 0.009305415 0.07188765 0.10904724
000120 24 83 ff 3c 18 7c b3 bd 30 ad ea bc 30 38 8a 3c
       0.031190462 -0.087639034 -0.028647035 0.016872495
000130 d4 a1 bb 3d 44 dc b5 bd f0 b4 b2 bd b9 75 ee bd
       0.09161726 -0.08879903 -0.08725917 -0.116435476
000140 d8 e9 f5 bd 2a f8 d7 bd 30 dd 32 3c 95 cc f0 bd
       -0.12007493 -0.105453804 0.010916993 -0.11757771
000150 e3 ce 05 3b 92 52 15 3d bd 1f ef ba 7b 11 63 bd
       0.0020417504 0.0364557 -0.0018243712 -0.055436593
000160 a9 17 38 bd b3 0e 92 bd 75 28 81 bc 66 d4 05 3d
       -0.04494444 -0.0713171 -0.015766362 0.032673262
000170 1d 78 28 3c 08 01 26 bc 1f 3e ac bd 24 95 ee bb
       0.0102825435 -0.010132082 -0.08410286 -0.0072809625
000180 76 fd 3e bc 9b d0 99 3d 84 0d 9b bc 4c 0d 09 3d
       -0.0116571095 0.075104915 -0.018927343 0.033459947
000190 71 d0 9f bd 74 cb 9f 3c 62 fd 4d bd 37 55 03 bd
       -0.07803429 0.019506194 -0.050290473 -0.03206369
0001a0 a2 f6 1f bd db 5c cc 3d a6 74 b0 bd 81 eb 9c bd
       -0.039053567 0.09978648 -0.08615999 -0.07662106
0001b0 7b c8 8e 3c 49 54 bf 3d 57 75 0a 3d 3a 48 3c 3d
       0.01742958 0.09342248 0.03380331 0.045967318
0001c0 98 e1 f2 3b 08 d1 88 bd d8 2b aa 3d b9 a9 6f bd
       0.007412147 -0.066804945 0.08309144 -0.05851147
0001d0 66 92 bf 3d ed 89 54 bd 18 95 13 3d 14 7e e8 bc
       0.09354095 -0.05188935 0.03603086 -0.028380431
0001e0 ab f8 7f bd cd be f3 bd af 97 9e 3d dd e9 cf bd
       -0.062493008 -0.11901627 0.07743775 -0.10152028
0001f0 be d1 84 3c 87 cb 95 ba e2 6f c2 3c f1 e8 08 3d
       0.016213294 -0.0011428454 0.02373499 0.033425275
000200 6a 0d 84 3c 15 74 b2 3b 25 a6 28 3d 01 4b 29 3d
       0.016119678 0.005445967 0.041174073 0.041331295
000210 26 d8 a9 3d ab 0c bc bd 03 bb cd 3b 92 f2 2b bd
       0.0829318 -0.09182104 0.006278397 -0.04197938
000220 d5 01 89 bc da be 7d bb 7d 49 b0 bd a3 c7 c2 bc
       -0.016724506 -0.0038718493 -0.08607767 -0.023776835
000230 7e 91 de bd fb 3a c4 3d 38 e8 da 3d 72 e2 9b 37
       -0.10867594 0.09581562 0.106888235 1.8582887e-05
000240 b8 09 45 bd 4a 46 d5 bc 1e 44 4e 3d 33 ef 32 bd
       -0.04810497 -0.026034493 0.05035793 -0.04368515
000250 44 66 99 3d bf e1 9b bd c1 cd c5 bc f6 9e dd 3d
       0.07490209 -0.07611417 -0.024145963 0.10821335
000260 75 f0 c8 bd e3 21 cb bd 2d ee 95 bd e1 52 a5 3d
       -0.098114885 -0.09918573 -0.07320819 0.080724485
000270 ee 64 6d 3c 0b c1 35 bc bc 9a e8 bd ba 18 c7 3d
       0.014489396 -0.011093388 -0.11357638 0.09721513
000280 14 70 b8 3d 20 54 e3 bc 76 5c c8 3b 2f bb 17 bd
       0.09005752 -0.027750075 0.006114538 -0.037043747
000290 65 72 5e 3d 14 1d 08 bd 84 3f ff 3d b2 fe d3 bd
       0.054308314 -0.033230856 0.124632865 -0.10351314
0002a0 e0 76 83 bc 4d 70 28 bd b7 de 07 3e c3 5e b3 3c
       -0.016047895 -0.041122723 0.13268553 0.021895772
0002b0 0c 61 09 3e 8f f3 a5 ba ce 41 e2 3d b6 72 30 3d
       0.13415927 -0.0012661087 0.110477075 0.043078147
0002c0 c0 c7 a3 3d c4 e5 c6 bd 7a 78 34 bd 1f bf e3 bb
       0.07997084 -0.09711793 -0.044060208 -0.0069502736
0002d0 95 db 12 3c 16 cb c7 3d 1c 5f 50 bd 7f 94 82 bd
       0.008963485 0.097555324 -0.050871953 -0.0637598
0002e0 d2 cc 96 3d ee 90 85 bc 95 94 b0 3d 26 a9 4b bd
       0.07363285 -0.01630446 0.0862209 -0.04972186
0002f0 10 fd 4a 3d bd 00 76 bd 59 82 6a bd 5b 41 94 3d
       0.049557745 -0.060059298 -0.057253215 0.07239028
000300 d0 79 2b bd 25 72 ab 3d 4a 82 c8 3c 9e 43 af 3d
       -0.041864216 0.08371381 0.02447619 0.08557819
000310 4f f7 b5 bd e7 f8 cd 3c 17 f6 ef bc b1 8f b6 bc
       -0.08885061 0.0251431 -0.02929215 -0.022285314
000320 76 b3 40 bd 0f 20 86 bd b3 f6 84 bd c4 3b b3 3c
       -0.047046147 -0.065490834 -0.06492367 0.021879084
000330 a5 64 7a bd 45 f6 04 bc d3 be 36 3d c2 39 82 bc
       -0.06113114 -0.008115356 0.044615578 -0.015896682
000340 b8 e9 32 3d 1a 33 4e 3d 3e fc 0f bc fe b2 97 3d
       0.043679923 0.050341703 -0.008788167 0.07407187
000350 5a 9d 16 bd 65 83 da 3d a5 54 b9 bd ef b5 e7 bd
       -0.036771156 0.10669593 -0.09049348 -0.11313998
000360 40 a9 f2 3d 55 05 2a 3c 31 1c 9c bd 03 ad 4e 3c
       0.11848688 0.010377248 -0.076225646 0.012614491
000370 34 e8 e2 3d 0a d8 bf 3d 90 dc ba bd 5e e2 02 3e
       0.110794455 0.09367378 -0.091241 0.12781665
000380 cc 3c ac 3d 6c 3e 95 3d 58 cf 86 3c 30 90 e6 bd
       0.084100336 0.07287297 0.016456291 -0.1125797
000390 ee 4b 56 3c 9c 72 2e bc 03 fb a1 bd 0b 80 47 bd
       0.0130796265 -0.010647442 -0.07909205 -0.048706096
0003a0 97 61 ed 3d 3c 33 70 bd 60 8f 54 bd 85 47 64 3c
       0.115908794 -0.05864261 -0.051894546 0.013933067
0003b0 50 b7 13 bd 83 05 d2 3c 71 b2 d7 3d 10 38 db bd
       -0.036063492 0.025637394 0.10532082 -0.107040524
0003c0 94 e2 1b 3c 97 6b f6 3c 51 36 4c 3d 11 18 c4 3c
       0.00951447 0.0300806 0.049856488 0.023937257
0003d0 88 e3 c1 bd 71 48 dc bd 84 8b 9f 3d 03 63 d5 3a
       -0.09467226 -0.107560046 0.07790282 0.0016280118
0003e0 1e 08 c4 bc a2 a0 d2 3d f7 40 44 bc 52 46 03 3c
       -0.023929652 0.102845445 -0.011978379 0.008012371
0003f0 61 5b b4 3d fb 48 52 3d f5 81 a0 bd 55 82 ec bd
       0.08806492 0.05133913 -0.07837287 -0.11548296
