server/gnn/gnn_model.pth (torch, 87853 bytes, 6 tensors)

conv1.lin_l.weight f4 [64, 100]
0	0x3d18ba1b	0.03728686
1	0x3b8f6973	0.004376584
2	0x3d32da30	0.04366511
3	0x3cb147bf	0.021640657
4	0x3d8ea32c	0.06964716
5	0xbc04a163	-0.008095118
6	0x3d0da007	0.034576442
7	0xbd69542a	-0.05696503
8	0xbd0d1a2f	-0.0344488
9	0x3d2e6cba	0.04258416
10	0x3d4e8b98	0.050426096
11	0x3dac2348	0.08405167
12	0x3d6e34e2	0.0581559
13	0xbcba56f6	-0.022746544
14	0x3d0dc3b6	0.034610473
15	0x3dd5755d	0.10422776
16	0x3c01a3f6	0.0079126265
17	0xbcf5d939	-0.030010806
18	0x3ce79a08	0.02827169
19	0xbcea13ac	-0.028573833
20	0x3dcd1300	0.100133896
21	0xbcd8c3bc	-0.02646052
22	0xbcd5e309	-0.026109235
23	0xbda39369	-0.07987101
24	0x3d667fc2	0.056274183
25	0xbd81c449	-0.063362665
26	0x3d3d4834	0.046211436
27	0xbac9c509	-0.0015393804
28	0xbd8ecdf9	-0.0697288
29	0xbd364dfc	-0.044507965
30	0xbce0cb9b	-0.027440837
31	0xbd79b791	-0.06096608
32	0x3da445fc	0.08021161
33	0xbd1d52fa	-0.03840921
34	0xbdb613da	-0.08890505
35	0x3d95d6e8	0.07316381
36	0x3ba7b399	0.0051178453
37	0xba737dc4	-0.0009288455
38	0x3cc51a5e	0.024060424
39	0xbd7acfd1	-0.061233345
40	0x3d50507b	0.050858002
41	0xbc841b19	-0.016126202
42	0xbd3ce828	-0.04611984
43	0xbca0e49a	-0.019640256
44	0x3ce47dfb	0.027892103
45	0xbd339b03	-0.043849003
46	0xbbcc7248	-0.0062392093
47	0x3c32bd3c	0.010909375
48	0x3cfeaf07	0.031089319
49	0xbbf1e100	-0.0073815584
50	0x3ca08f6f	0.019599644
51	0xbdb21cce	-0.086969
52	0x3d434ef8	0.047682732
53	0x3d966323	0.073431276
54	0xbd7b40e9	-0.0613412
55	0x3caa3c3a	0.020780671
56	0x3d75d1b5	0.060014445
57	0x3cd45b75	0.025922516
58	0xbd602513	-0.054722857
59	0xbd33db7d	-0.043910492
60	0x3dcf6580	0.101267815
61	0xbd7af6f1	-0.061270658
62	0xbbebdd6b	-0.007198026
63	0x3daaf99b	0.0834839
64	0x3d267cd9	0.040646408
65	0x3d7ce8b5	0.061745364
66	0x3d785e7d	0.060636986
67	0x3ddee609	0.108837195
68	0xbdb98bec	-0.09059891
69	0x3dc9d54a	0.09855135
70	0x3d7a0739	0.061042044
71	0xbd631323	-0.055438172
72	0xbd25f2df	-0.040514823
73	0x3dba2b98	0.09090346
74	0x3db92691	0.09040559
75	0x3d3e0c2f	0.046398338
76	0x3d1c62d6	0.038180195
77	0xbd225968	-0.039636046
78	0xbc403e3a	-0.011733586
79	0x3d9e4b77	0.077292375
80	0xbc8e0f44	-0.017341264
81	0xbceefd7d	-0.029173607
82	0x3cd6c22d	0.026215637
83	0x3d499ed3	0.049223732
84	0x3ddd2db2	0.10799731
85	0x3b89f9d6	0.004210691
86	0xbd68890e	-0.05677133
87	0x3d2a23d0	0.04153806
88	0x3d91588c	0.07096967
89	0xba42c7b4	-0.0007430271
90	0x3d263b2a	0.040583767
91	0xbd568d54	-0.052380875
92	0x3dcc015e	0.09961198
93	0x3d5a9897	0.053368177
94	0xbcc29dc0	-0.023756862
95	0x3a8ae4bc	0.0010596733
96	0xbcd3801f	-0.025817929
97	0xbdab8b74	-0.08376208
98	0xbbbf9b55	-0.0058473744
99	0xbbbdc252	-0.005790987
100	0xbd9c56e6	-0.07633762
101	0xbd24af69	-0.040206347
102	0x3d886f18	0.066618145
103	0x3d6ca48a	0.057774104
104	0xbce1fef5	-0.027587393
105	0xbd6a7ac0	-0.05724597
106	0x3d0fb87f	0.03508806
107	0x3d6fb626	0.05852332
108	0x3c9f88c4	0.019474395
109	0x3b3bb56f	0.0028642078
110	0xbc99078f	-0.018680362
111	0xbd6cdbc5	-0.057826776
112	0x3cec4075	0.02883933
113	0x3b9f1732	0.00485506
114	0xbd02a42b	-0.031894844
115	0xbd5db86f	-0.054130968
116	0x3db54555	0.08851115
117	0x3d2a8ec0	0.041640043
118	0x3b6dd68e	0.0036291215
119	0x3d5f7310	0.05455309
120	0x3c3cbf52	0.011520224
121	0xbce76fdf	-0.028251586
122	0x3c192836	0.009347966
123	0x3c8799ea	0.016552884
124	0x3c961f80	0.018325567
125	0x3cbfc412	0.023408923
126	0x3dc93ed8	0.098264396
127	0xbd472d95	-0.048627455
128	0x3d1adc13	0.037807535
129	0xbaa04420	-0.0012227334
130	0x3ddb97aa	0.10722287
131	0xbd347ad3	-0.044062447
132	0xbd8a27ec	-0.06745896
133	0xbd492c2b	-0.049114387
134	0x3db6936e	0.08914839
135	0xbd2a9a36	-0.041650973
136	0x3d905ee2	0.070493475
137	0x3dac2b20	0.08406663
138	0x3dbf84e3	0.09351518
139	0x3c31cfe6	0.0108527895
140	0xbd370746	-0.04468467
141	0xbc830880	-0.015995264
142	0x3d47466c	0.048651144
143	0x3dae9d91	0.08526147
144	0xbdaeb5d4	-0.08530775
145	0x3d9b90bb	0.075959645
146	0xbdad2297	-0.08453863
147	0x3db5383b	0.08848616
148	0xbda9f863	-0.08299329
149	0xbda2b571	-0.079447635
150	0x3cfb326b	0.03066369
151	0xbd3b818d	-0.045777846
152	0x3dd16655	0.102245964
153	0x3da89209	0.08230979
154	0x3cf3bb25	0.029752323
155	0x3d98ec85	0.074669875
156	0x3d7853ac	0.06062667
157	0x3d4b5e24	0.049650326
158	0x3dbf5bca	0.09343679
159	0xbcb92d38	-0.02260457
160	0xbdaf7e8b	-0.08569058
161	0xbd9387c3	-0.07203629
162	0x3d9b0d62	0.07570912
163	0xbd6604d0	-0.056156933
164	0xbde47370	-0.111548305
165	0x3d900076	0.07031338
166	0xbdb48319	-0.088140674
167	0x3ceef796	0.029170793
168	0xbce98bee	-0.028509106
169	0x3dac206d	0.08404622
170	0xbd26f305	-0.040759105
171	0xbdaa1105	-0.083040275
172	0xbd75d598	-0.060018152
173	0x3da4fc55	0.08055941
174	0x3d09bac3	0.033625375
175	0xbd88972a	-0.06669457
176	0xbd31ec4c	-0.04343824
177	0x3db4d31d	0.08829329
178	0x3d4e4f12	0.050368376
179	0x3d685c93	0.05672891
180	0x3ce68c83	0.028143173
181	0x3d6565e9	0.056005392
182	0xbca38e7b	-0.0199654
183	0x3da6faa6	0.08153276
184	0x3ca931d3	0.02065364
185	0x3dc1c0db	0.094606124
186	0x3dbd5d56	0.09246318
187	0xbdcc0279	-0.09961409
188	0x3d8cf5c4	0.068828136
189	0xbd5bae42	-0.053632982
190	0x3cd26c69	0.02568646
191	0x3da8c1d6	0.08240096
192	0x3d5f78df	0.05455863
193	0xbc91f7ff	-0.017818449
194	0x3d0071de	0.031358592
195	0xbdb3db75	-0.087820925
196	0x3dba2c8b	0.09090527
197	0xbd0d2263	-0.03445662
198	0xbcf3851a	-0.029726554
199	0xbc2a8c3c	-0.010409411
200	0x3cc88abb	0.024480214
201	0xbc060bb2	-0.008181499
202	0x3cec6510	0.028856784
203	0x3d8f8435	0.07007638
204	0x3dbecf2a	0.09316857
205	0x3d90562a	0.070476845
206	0xbd3c91ce	-0.046037488
207	0xbd925a5e	-0.071461424
208	0x3bcbb2cf	0.006216384
209	0xbd2dbc82	-0.042416103
210	0xbca2eff5	-0.019889811
211	0x3d8230c6	0.06356959
212	0x3c929fb7	0.017898424
213	0x3d5b836e	0.053592138
214	0x3de36257	0.11102741
215	0x3da2f511	0.07956899
216	0xbdb058e8	-0.086107075
217	0x3c834aff	0.016026972
218	0x3ca9e5a3	0.020739382
219	0x3dc8ef1a	0.0981123
220	0x3c3f2057	0.011665425
221	0x3b73c81b	0.003719813
222	0x3d05698d	0.032571364
223	0x3dd42ace	0.10359727
224	0xbdc5498b	-0.09633168
225	0x3c4da7be	0.0125522
226	0xbdb6123c	-0.08890197
227	0x3cffe1b7	0.031235559
228	0x3be10511	0.006867059
229	0x3d11a18c	0.035554454
230	0x3de70bd6	0.112815544
231	0xbd012258	-0.031526893
232	0xbc9f2ce9	-0.019430595
233	0xbcef4b40	-0.029210687
234	0x3ca8430f	0.020539789
235	0x3cd7b4ff	0.026331423
236	0x3d3797d6	0.044822536
237	0x3dc0d497	0.09415548
238	0xbda8b584	-0.08237746
239	0x3d9da957	0.07698315
240	0xbd878c37	-0.06618541
241	0xbd4b19fc	-0.049585328
242	0x3dc1a886	0.094559714
243	0xbd99a713	-0.0750257
244	0xbc14572e	-0.009053988
245	0x3dc6786b	0.09690937
246	0x3dba2777	0.090895586
247	0xbc909653	-0.017649805
248	0x3dafdbe1	0.085868604
249	0x3ccd2de5	0.025046298
250	0x3d29be74	0.041441396
251	0xbc350272	-0.011047946
252	0xbd00c15e	-0.03143441
253	0x3d991439	0.0747456
254	0x3b8128a4	0.0039416123
255	0xbcc2068f	-0.023684768

conv1.lin_l.bias f4 [64]
0	0x3d9d4a0a	0.076801375
1	0x3d084a62	0.033274062
2	0x3d0d5726	0.03450694
3	0xbd9efa74	-0.07762614
4	0x3d987bfc	0.07445523
5	0x3cbc2fec	0.02297207
6	0x3d31d4ef	0.04341596
7	0xbc120885	-0.008913164
8	0xbd96d7f3	-0.07365408
9	0x3dab1d64	0.08355215
10	0x3d9cd519	0.07657833
11	0x3d501477	0.050800767
12	0xbd9404bb	-0.07227465
13	0xbd913a44	-0.070911914
14	0xbd3ade1c	-0.045621976
15	0x3dac302a	0.08407624
16	0x3d9b3048	0.07577568
17	0x3cf69ca3	0.030103987
18	0xbd818325	-0.06323842
19	0xbd8b3aa4	-0.06798294
20	0xbdb228ed	-0.08699212
21	0x3dab5a07	0.08366781
22	0xbdb66a2e	-0.08906971
23	0xbc7dc010	-0.015487686
24	0xbd81a76a	-0.0633076
25	0x3d6e0c04	0.058116928
26	0x3d417d6e	0.04723876
27	0xbd9291dc	-0.07156727
28	0x3d201ff2	0.039092965
29	0xbd5d085a	-0.053963043
30	0x3d6f4841	0.058418516
31	0xbca8bf4b	-0.020599028
32	0x3b2044d7	0.0024455094
33	0x3cef5aea	0.029218156
34	0xbd9f39f1	-0.07774723
35	0x3d9e31ff	0.0772438
36	0x3dd244c4	0.10267022
37	0x3cb78edd	0.02240699
38	0xbd79ab50	-0.060954392
39	0x3d8d1201	0.068881996
40	0x3dcf005d	0.10107491
41	0x3dbfd281	0.09366322
42	0x3cd86f92	0.026420388
43	0x3b34d52d	0.0027592883
44	0x3b6bdb08	0.0035988707
45	0x3d8ff979	0.07030005
46	0xbd343635	-0.04399701
47	0x3dc7e562	0.09760548
48	0xbdbd2329	-0.09235222
49	0xbd6f8cff	-0.058484074
50	0xbd60de3c	-0.05489944
51	0x3d9c27a7	0.076247506
52	0x3d657e15	0.056028444
53	0xbcc20967	-0.023686124
54	0x3cfcc1db	0.030854156
55	0xbdd2f440	-0.10300493
56	0x3dafb791	0.085799344
57	0x3d9cce87	0.076565795
58	0x3daa64dd	0.083200194
59	0x3db18742	0.086683765
60	0xbd6ef957	-0.058343258
61	0xbd35ddd0	-0.04440099
62	0x3d702cb3	0.05863638
63	0xbdbe3bac	-0.09288725

conv1.lin_r.weight f4 [64, 100]
0	0x3c8f8066	0.01751728
1	0x3d53be25	0.051695008
2	0xbd92a43c	-0.071602315
3	0xbd9a1956	-0.07524364
4	0xbd3acadd	-0.04560362
5	0xbcae33cc	-0.021264933
6	0xbd529cbb	-0.051419
7	0x3d819f58	0.063292205
8	0x3dad01c1	0.084476
9	0x3db1c174	0.086794764
10	0x3da64b02	0.08119775
11	0x3d623aba	0.055231787
12	0xbd2f38f5	-0.042778928
13	0x3d81d5f2	0.06339635
14	0xbdba5c50	-0.090996385
15	0x3c591e07	0.013251788
16	0xbb80a2dc	-0.0039256644
17	0xbd840159	-0.064455695
18	0x3c28217e	0.010261891
19	0xbd35470e	-0.044257216
20	0xbdb8bc6c	-0.090203136
21	0xbbee7229	-0.0072767925
22	0x3cc28a7a	0.023747671
23	0xbd90aaaa	-0.070638016
24	0x3d81a3e9	0.063300915
25	0xbd9a8028	-0.07543975
26	0xbce63fe2	-0.028106634
27	0xbbfa1c37	-0.007632758
28	0x3d53e2d6	0.05173
29	0xbdd7fa68	-0.10545808
30	0xbcfba59b	-0.030718615
31	0x3d603311	0.0547362
32	0x3d2a00ff	0.041504856
33	0xbdce1e92	-0.100644246
34	0xbda3c947	-0.07997375
35	0xbae18ae4	-0.001720753
36	0xbce299d0	-0.027661234
37	0x3cc70dac	0.024298511
38	0xbd9f75c5	-0.07786135
39	0xbd9c05ad	-0.0761827
40	0xbd312d95	-0.04325636
41	0xbd3d46ad	-0.04620998
42	0xbdad9d76	-0.08477299
43	0xbd1e6b15	-0.03867634
44	0x3d622de7	0.055219557
45	0x3d936048	0.071960986
46	0xbdcf762e	-0.10129963
47	0xbde96607	-0.11396413
48	0xbd1be192	-0.038056917
49	0xbcc1a6a5	-0.023639033
50	0x3da46574	0.08027163
51	0x3d9c7088	0.07638651
52	0x3d7ca50b	0.061680835
53	0x3d97414e	0.07385503
54	0xbca58a28	-0.02020748
55	0xbd8cf323	-0.06882312
56	0xbc918815	-0.017765084
57	0xbd1c63da	-0.038181163
58	0xbdbbffa0	-0.09179616
59	0xbd3cae1a	-0.046064474
60	0x3d9035d5	0.07041518
61	0xbd92aee1	-0.07162262
62	0xbd7e234e	-0.062045388
63	0xbdac0f43	-0.084013484
64	0xbd46f3e7	-0.048572447
65	0x3cc49e82	0.024001364
66	0xbc97ecea	-0.018545587
67	0xbd68f8d6	-0.056877933
68	0xbcb11e0c	-0.021620773
69	0xbc38dcbc	-0.011283096
70	0xbc942b80	-0.018087149
71	0x3cf71734	0.030162431
72	0x3d8a9d4b	0.067682825
73	0xbdcbd6bf	-0.09953069
74	0xbd0ec724	-0.034857884
75	0x3c1f6c75	0.009730448
76	0x3cb41c32	0.0219861
77	0x3d6923e9	0.056919012
78	0xbd6a3b7a	-0.057185628
79	0xbcc3d6eb	-0.023906192
80	0xbc9472f1	-0.018121215
81	0x3d106972	0.03525681
82	0xbd3e5455	-0.046467144
83	0xbddc4710	-0.107557416
84	0x3d653d5c	0.05596672
85	0xbda242a0	-0.07922864
86	0x3da5f7cc	0.08103904
87	0xbda60087	-0.08105569
88	0x3d76d23c	0.06025909
89	0xbd4eae42	-0.050459154
90	0xbd1a9a85	-0.037745018
91	0x3a7a76e8	0.00095544616
92	0xbdc4d2f2	-0.09610547
93	0x3b54d478	0.0032475274
94	0xbd6ce73c	-0.05783771
95	0x3ccbe99c	0.024891667
96	0xbd7b7d1c	-0.06139861
97	0xbccfed24	-0.025381632
98	0xbd3c0e17	-0.045911875
99	0xbd19b5db	-0.037526947
100	0x3dcfb14a	0.10141237
101	0xbbfc010b	-0.007690554
102	0xbd910743	-0.07081463
103	0x3d965113	0.073396824
104	0x3da83640	0.08213472
105	0xbc0e64a1	-0.008690984
106	0x3d55624a	0.05209569
107	0x3d902ea8	0.07040149
108	0x3d9dfffc	0.07714841
109	0xbd353787	-0.044242408
110	0x3ce8be56	0.028411072
111	0xbd9e0e30	-0.0771755
112	0x3d159833	0.0365221
113	0xbda3bb88	-0.07994753
114	0xbab8dcb5	-0.0014103862
115	0xbdb28aa6	-0.08717851
116	0xbcc3a32c	-0.023881517
117	0x3cc67dbb	0.024229875
118	0x3dcc81af	0.09985673
119	0xbd8ebf19	-0.06970043
120	0x3c8c9aea	0.017163713
121	0x3dd5fb51	0.104483254
122	0xbcafd657	-0.02146451
123	0xbd9c7931	-0.07640303
124	0x3d07f296	0.033190332
125	0x3d28065f	0.0410217
126	0x3cc15f8f	0.023605136
127	0xbdc376b0	-0.09544122
128	0xbcf358a2	-0.02970535
129	0xbd7e3743	-0.06206442
130	0xbd911a92	-0.07085146
131	0xbd82aa3b	-0.06380125
132	0xbd349e5d	-0.04409634
133	0xbda5819f	-0.08081364
134	0xbd314a2d	-0.04328363
135	0xbdb4f63a	-0.088360265
136	0x3d889ecb	0.06670912
137	0xbc59cd87	-0.01329363
138	0xbca5c489	-0.020235317
139	0xbdc0d5b3	-0.0941576
140	0x3d927bc8	0.07152516
141	0xbcb56d67	-0.022146894
142	0x3cd81e4c	0.026381634
143	0x3cf4818f	0.029846935
144	0xbdc5230e	-0.09625827
145	0xbd85efef	-0.06539904
146	0x3d22024d	0.039552975
147	0xbca19311	-0.019723447
148	0xbdc74a75	-0.097309984
149	0xbd292000	-0.041290283
150	0x3db76c3b	0.0895619
151	0xbd55755a	-0.05211387
152	0xbcb9a98d	-0.022663856
153	0x3b15c8cc	0.002285528
154	0xbd5e6708	-0.054297477
155	0x3cfe6963	0.031056112
156	0x3d8c25b1	0.068431266
157	0xbd7b5c80	-0.06136751
158	0x3d184b29	0.037181053
159	0x3db27e8f	0.087155454
160	0xbbdff0e3	-0.006834136
161	0xbdc4e218	-0.096134365
162	0x3db48dcd	0.08816109
163	0x3d217420	0.039417386
164	0xbcdf9338	-0.027291879
165	0x3bc19a97	0.005908321
166	0xbc85fc9e	-0.016355809
167	0xbd8fa68e	-0.0701419
168	0x3be70bd8	0.0070509724
169	0x3c985893	0.018596923
170	0x3d324392	0.04352147
171	0x3d5936b2	0.053030677
172	0x3d80981a	0.06279011
173	0x3dc5b953	0.096544884
174	0x3d2bb823	0.041923653
175	0x3cff8496	0.031191152
176	0xbc9ee9d5	-0.01939861
177	0xbcfe3756	-0.031032246
178	0x3db0154a	0.085978106
179	0xbc2064de	-0.009789674
180	0x3d6fd97c	0.05855702
181	0xbdc0a7f8	-0.094070375
182	0xbd907b7a	-0.07054801
183	0x3d51eaac	0.05124919
184	0x3c2ed7e2	0.010671588
185	0xbd92c011	-0.0716554
186	0x3d88c023	0.06677272
187	0xbc258510	-0.010102525
188	0xbdb093b8	-0.08621925
189	0xbdcb8055	-0.09936587
190	0xbc6cabbf	-0.014445244
191	0x3d12ea37	0.035867896
192	0xbdab2cfc	-0.083581895
193	0x3d942bf9	0.072349496
194	0x3d2e32e2	0.042528994
195	0xbcbc9cac	-0.023023926
196	0xbc9a0216	-0.018799823
197	0x3cac94fa	0.021067131
198	0xbd3dc801	-0.046333317
199	0xbc8f052e	-0.017458525
200	0xbc350043	-0.011047426
201	0xbda578b3	-0.08079662
202	0xbce5e55e	-0.028063472
203	0xbd89efdc	-0.06735203
204	0x3d024f8b	0.03181414
205	0xbda1df91	-0.0790397
206	0xbd20a533	-0.039220046
207	0xbd31835f	-0.043338176
208	0xbc823a5a	-0.015896965
209	0xbd82f7fa	-0.06394954
210	0xbbfd6b3b	-0.00773373
211	0x3d16590b	0.03670601
212	0x3de04a13	0.109516285
213	0xbda58d98	-0.080836475
214	0x3dcbadbe	0.09945248
215	0x3cbb70de	0.022880968
216	0x3d7cb87f	0.061699387
217	0x3cf299cf	0.029614357
218	0xbd2369c6	-0.039895795
219	0xbd37e3bd	-0.044894923
220	0xbd87e7fb	-0.06636044
221	0xbd408d8e	-0.047009997
222	0x3c1478ab	0.009061973
223	0x3ccb3314	0.02480463
224	0xbdc01c13	-0.09380355
225	0xbd8361e1	-0.06415153
226	0x3d01e02f	0.03170794
227	0x3dace585	0.08442215
228	0x3b7a698c	0.0038209883
229	0x3ba5f589	0.0050646705
230	0xbd7988d5	-0.06092151
231	0x3d54ca49	0.051950727
232	0xbc72f472	-0.014828788
233	0xbcfb1ff8	-0.030654892
234	0xbdd971ee	-0.106174335
235	0xbd43f22b	-0.04783837
236	0x3dd54e3b	0.10415312
237	0x3b4568db	0.0030122313
238	0xbd99383d	-0.0748143
239	0xbd8801cd	-0.066409685
240	0x3d7ea3d1	0.062167946
241	0xbd674b11	-0.056468073
242	0xbda7efa2	-0.08200003
243	0xbd883f3a	-0.066526845
244	0xbda9ba8d	-0.08287535
245	0xbcbb5b95	-0.022870818
246	0xbd600d1c	-0.054700002
247	0xbdcc96b7	-0.09989684
248	0xbdbe5eac	-0.09295401
249	0xbda99e59	-0.082821555
250	0x3c161d48	0.009162255
251	0xbcc8c7b0	-0.02450928
252	0x3dbe2685	0.09284691
253	0x3d756bb9	0.059917185
254	0x3d7d7850	0.061882317
255	0xbd8f508d	-0.06997786

conv2.lin_l.weight f4 [64, 64]
0	0xbdc71039	-0.09719891
1	0xbe03874d	-0.12844582
2	0x3ccaf911	0.024776967
3	0xbddb271f	-0.10700821
4	0x3c37cea8	0.011218704
5	0xbd94f0b6	-0.072724745
6	0xbc3854ee	-0.011250718
7	0x3d90b517	0.0706579
8	0xbd132b05	-0.0359297
9	0x3d64fddc	0.05590616
10	0xbcbbb2b2	-0.022912357
11	0xbd9ec1e1	-0.07751823
12	0x3cba7057	0.022758646
13	0x3d088b6d	0.03333609
14	0xbdacf237	-0.08444636
15	0x3dadd515	0.08487908
16	0xbd8d5973	-0.06901827
17	0xbab6a6c9	-0.0013935204
18	0xbd66c550	-0.056340516
19	0x3c3a7c64	0.011382196
20	0xbc6b41fe	-0.0143589955
21	0x3dbfc9b4	0.09364644
22	0xbd7bf4a5	-0.061512608
23	0x3d608768	0.054816633
24	0xbd592237	-0.053011145
25	0x3cc682d4	0.024232306
26	0x3b22d297	0.002484476
27	0xbdf961c0	-0.121768475
28	0xbcdb4989	-0.026768463
29	0xbd66dc4a	-0.056362428
30	0xbd989267	-0.07449799
31	0x3cf66442	0.030077104
32	0xbdfb4b1f	-0.122701876
33	0xbde44a4b	-0.11146983
34	0x3dd2d590	0.1029464
35	0x3d97c2a7	0.07410174
36	0xbd6791da	-0.05653558
37	0xbd492866	-0.049110793
38	0xbd8b8c11	-0.06813825
39	0x3d46c2f1	0.048525754
40	0xbdc0f126	-0.094209954
41	0x3d9f0626	0.077648446
42	0x3d1800fa	0.037110306
43	0xbd29665d	-0.041357387
44	0x3d6703d7	0.056400146
45	0xbde45211	-0.111484654
46	0xbd2cccc8	-0.042187482
47	0x3d7c400f	0.06158453
48	0x3d537d1a	0.051632978
49	0x3d7ca2a6	0.06167855
50	0x3d741f62	0.05960024
51	0x3da41510	0.0801183
52	0x3db5f019	0.088836856
53	0xbdf69d5a	-0.12041731
54	0x3ca59e73	0.020217156
55	0xbda6135a	-0.0810916
56	0xbdbb709f	-0.0915234
57	0xbe0b928b	-0.1363012
58	0xbd9ea9d1	-0.07747234
59	0xbc34911f	-0.011020928
60	0x3d9e8dc2	0.07741882
61	0xbd12ee93	-0.035872053
62	0xbdfa4d7c	-0.1222181
63	0xbda82d41	-0.082117565
64	0x3d95879d	0.07301257
65	0xbd5405fd	-0.051763523
66	0x3d3b51e3	0.04573239
67	0xbde9e4ab	-0.11420568
68	0xbdbc8e7e	-0.09206866
69	0x3dd9327e	0.10605334
70	0xbc1380b6	-0.009002855
71	0x3c5dc899	0.013536596
72	0xb716d528	-8.990326e-06
73	0x3d3c37ec	0.04595177
74	0x3d7dbf77	0.061950173
75	0xbd4473d5	-0.04796203
76	0xbd503ee4	-0.050841227
77	0x3daba3c5	0.08380846
78	0xbdb6b3d2	-0.08921017
79	0x3d50c3b3	0.050967883
80	0x3d9dbff0	0.07702625
81	0x3e067934	0.13132173
82	0x3dccceda	0.10000391
83	0xbdef8d30	-0.11696851
84	0xbd9668e8	-0.07344228
85	0x3cc2df01	0.023787977
86	0x3dd7278f	0.10505592
87	0xbda7b42c	-0.08188662
88	0xbca2f56d	-0.019892419
89	0xbcbd96d9	-0.023143219
90	0xbd1fef98	-0.039046854
91	0x3d66b5bc	0.05632566
92	0xbdbccb9c	-0.09218523
93	0x3d46e304	0.048556343
94	0xbd841ef3	-0.064512156
95	0x3e04cb9a	0.12968293
96	0xbdb50122	-0.08838107
97	0x3d4f767a	0.050650097
98	0x3d1b0def	0.037855085
99	0xbd8bb184	-0.06820968
100	0xbb3dca19	-0.002895957
101	0x3dde8d6b	0.10866817
102	0xbdd40dbf	-0.10354184
103	0x3dcc9fa9	0.0999139
104	0xbceb22a3	-0.02870304
105	0xbc1faf7d	-0.0097464295
106	0x3e0618b3	0.1309536
107	0x3da793d6	0.08182494
108	0x3d9a1f1e	0.075254664
109	0x3da7c46d	0.08191762
110	0xbdf06235	-0.117374815
111	0xbd890baf	-0.066916816
112	0xbd3cca07	-0.046091106
113	0xbde6ef59	-0.11276121
114	0x3d8da697	0.0691654
115	0xbdae3c27	-0.08507567
116	0x3db96369	0.09052164
117	0x3cbcfe74	0.023070551
118	0xbd86284f	-0.06550657
119	0x3dff2177	0.12457555
120	0x3d5ce7d1	0.053932015
121	0xbcbdd5e2	-0.023173276
122	0x3d81085c	0.063004225
123	0x3d0e692e	0.034768276
124	0x3e0a011f	0.1347699
125	0x3ceb7463	0.028742021
126	0xbdfbf8b5	-0.123032965
127	0x3d43cc0d	0.04780202
128	0x3d1db450	0.038502038
129	0x3d93fa51	0.072254784
130	0x3de696be	0.112592205
131	0xbdb113fd	-0.086463906
132	0x3c5fe514	0.013665456
133	0x3cd5769c	0.026057534
134	0xbb8a22fc	-0.0042155962
135	0x3d86a51b	0.0657446
136	0x3d6d384d	0.05791502
137	0x3c87688e	0.016529348
138	0x3d644f5c	0.055739745
139	0xbc786310	-0.015160337
140	0xbdc81509	-0.09769637
141	0x3dc48dfc	0.09597394
142	0xbd8855ff	-0.066570275
143	0xbdd1fbc3	-0.10253098
144	0xbd4940c8	-0.049134046
145	0x3dc18baa	0.09450467
146	0x3abb2aaf	0.0014279688
147	0x3ccb78f2	0.024837945
148	0xbd8e9720	-0.069624186
149	0x3db09551	0.0862223
150	0x3e00a630	0.12563396
151	0x3d0a1648	0.033712655
152	0xbce4b225	-0.027916977
153	0x3d8c8b85	0.06862549
154	0x3c2a10b1	0.010379956
155	0xbd6daef2	-0.05802817
156	0x3d819772	0.06327714
157	0xbd744b27	-0.059641983
158	0xbd86b602	-0.06577684
159	0xbcc162da	-0.023606706
160	0x3dc9c87f	0.09852695
161	0x3b1018ed	0.0021987513
162	0x3d44c0c3	0.048035394
163	0x3ddb215f	0.106997244
164	0x3e04c752	0.1296666
165	0xbbe02f4e	-0.0068415767
166	0xbcdd2390	-0.026994497
167	0x3decf421	0.115700014
168	0xbd7336b9	-0.05937836
169	0x3e015eca	0.12633815
170	0x3cae21a1	0.02125627
171	0xbd88a241	-0.066715725
172	0x3e0368cc	0.12832946
173	0x3d28d7c4	0.041221395
174	0xbba84fa2	-0.005136446
175	0x3e00feb3	0.1259716
176	0xbdb375ff	-0.0876274
177	0xbd4da19c	-0.05020295
178	0x3df25531	0.11832655
179	0x3d8fca6a	0.07021029
180	0x3df8d34f	0.12149679
181	0x3c9ffa6e	0.019528594
182	0xbd7292f6	-0.059222184
183	0xbccee33a	-0.025254834
184	0x3d0f1d4c	0.03494005
185	0x3de2fd2f	0.11083447
186	0x3d9b3dce	0.07580148
187	0x3d4953aa	0.049152054
188	0x3cfcac37	0.030843837
189	0xbcfc289d	-0.030781085
190	0xbcd5b5e5	-0.02608771
191	0xbdc09796	-0.09403913
192	0xbd9c87ad	-0.076430656
193	0xbda9674a	-0.08271654
194	0xbdec46c1	-0.11536933
195	0xbc8cf6ba	-0.017207492
196	0x3dac8337	0.08423465
197	0x3d82b8a9	0.063828774
198	0xbdbeaa69	-0.09309847
199	0x3da0a582	0.07844068
200	0x3dbb66e6	0.09150486
201	0x3d69eb4e	0.05710917
202	0xbdcee95a	-0.10103102
203	0xbda27a85	-0.07933525
204	0x3d71e9cf	0.059060868
205	0xbd3145c5	-0.043279428
206	0x3dfa25e5	0.12214259
207	0x3df6ddc6	0.12054019
208	0x3c48cafa	0.012255425
209	0x3df96378	0.12177175
210	0xbd5af31b	-0.0534545
211	0x3de55dcb	0.1119953
212	0xbde19ed5	-0.11016623
213	0xbdda9c1b	-0.10674306
214	0xbdab5268	-0.08365327
215	0xbd29fc9f	-0.041500684
216	0xbdec9de6	-0.11553554
217	0x3df49185	0.11941818
218	0xbd06549c	-0.032795534
219	0xbdb19ed6	-0.08672874
220	0x3d9441ff	0.0723915
221	0xbdef334e	-0.116797075
222	0x3dd3fa7f	0.10350513
223	0xbde41938	-0.111376226
224	0xbd45bf71	-0.048278276
225	0xbdda7e28	-0.10668594
226	0x3dc6be2f	0.097042434
227	0x3db5a5a9	0.08869488
228	0x3dc8e082	0.098084465
229	0xbd7a7a6c	-0.061151907
230	0xbcdfd114	-0.027321376
231	0x3dc84d51	0.09780372
232	0xbd89a258	-0.06720418
233	0xbd838ad9	-0.064229675
234	0x3cc35142	0.023842458
235	0x3dfd609d	0.12371943
236	0x3d7e3b58	0.062068313
237	0x3dcafc01	0.09911347
238	0x3d9855ad	0.07438216
239	0xbd248f7f	-0.04017591
240	0xbd82e3de	-0.063911185
241	0xbcef6ee5	-0.029227683
242	0x3d2ba297	0.041903105
243	0xbdc919de	-0.09819387
244	0xbc203b37	-0.009779743
245	0xbd90938a	-0.07059391
246	0x3d048d86	0.03236153
247	0x3c1305c7	0.008973545
248	0xbc0d3d47	-0.008620567
249	0xbc641dba	-0.013923103
250	0x3deed489	0.116616316
251	0x3cf133d2	0.029443655
252	0x3d8126cd	0.06306229
253	0xbdb14594	-0.08655849
254	0x3dbb8346	0.09155898
255	0xbd39856b	-0.045293253

conv2.lin_l.bias f4 [64]
0	0x3d34c0c1	0.044129137
1	0x3dc20f03	0.094755195
2	0x3d97e030	0.07415807
3	0x3d8003cc	0.06250724
4	0xbd582ee5	-0.052779097
5	0xbd802d89	-0.06258685
6	0x3d4c0e57	0.049818363
7	0x3d6d0132	0.057862468
8	0x3d40263e	0.04691147
9	0x3dd4877d	0.10377405
10	0xbd16ee7b	-0.036848526
11	0x3d1e4466	0.03863945
12	0xbd314da5	-0.04328694
13	0x3d548fd7	0.05189499
14	0x3d4f51c0	0.050615072
15	0xbd847cbe	-0.06469105
16	0x3c3e3b6e	0.011610849
17	0x3dad82be	0.08472203
18	0xbd85df64	-0.06536749
19	0xbcb7408e	-0.02236965
20	0xbd772db9	-0.06034634
21	0xbb2e985e	-0.002664111
22	0x3d9e89dc	0.07741138
23	0x3d9cf5b7	0.07664054
24	0x3c5a4869	0.013322928
25	0xbdcb3f77	-0.09924214
26	0x3d84f1c2	0.06491424
27	0xbd282aac	-0.04105632
28	0x3d1467d0	0.036231816
29	0x3dc6deff	0.09710502
30	0xbd970357	-0.07373684
31	0x3d943dc4	0.07238343
32	0xbc21d957	-0.009878478
33	0xbdb8cb06	-0.09023099
34	0xbdbc6f30	-0.09200895
35	0xbde50f39	-0.11184544
36	0xbdf916f8	-0.12162584
37	0xbd08eacb	-0.03342704
38	0xbb8e805a	-0.004348797
39	0xbcdbd557	-0.026835127
40	0x3d600dfa	0.05470083
41	0xbdecd459	-0.115639396
42	0xbd8cb2ba	-0.06870027
43	0x3de98138	0.114016
44	0x3d281e75	0.04104467
45	0xbdafd8ba	-0.08586259
46	0xbcb1401e	-0.021637019
47	0x3cfc2486	0.030779134
48	0xbcca0ac5	-0.024663338
49	0xbd0d7c04	-0.0345421
50	0x3d6a2fcb	0.057174485
51	0xbda9afa3	-0.08285453
52	0x3d78033b	0.060549956
53	0xbda07109	-0.0783406
54	0xbd34c214	-0.0441304
55	0xbc188033	-0.009307909
56	0x3d5b0245	0.05346896
57	0x3b60075b	0.0034184072
58	0x3d35dc73	0.04439969
59	0x3d8b9901	0.068162926
60	0xbc600c90	-0.01367487
61	0xbd9dbb56	-0.07701747
62	0xbd852d1f	-0.06502747
63	0x3dafc4c1	0.0858245

conv2.lin_r.weight f4 [64, 64]
0	0x3dad3c6b	0.084587894
1	0xba295450	-0.0006459402
2	0xbdb2b383	-0.087256454
3	0xbd9ea3c5	-0.0774608
4	0x3d8b118b	0.067904554
5	0xbde3e8e5	-0.111284055
6	0xbd716b45	-0.05894019
7	0xbd9e78ee	-0.07737909
8	0xbdb1f43f	-0.08689164
9	0x3cc1daad	0.023663843
10	0x3deac32c	0.11463007
11	0x3d8fabff	0.070152275
12	0xbd9d5446	-0.076820895
13	0x3b0aa349	0.0021154454
14	0xbd77ad12	-0.060467787
15	0xbd0dfb41	-0.034663443
16	0x3c81d9a6	0.015850853
17	0xbd8dcc50	-0.06923735
18	0xbe072a99	-0.13199843
19	0x3cedd48b	0.029032012
20	0x3d917c4e	0.07103787
21	0xbd8c8969	-0.068621464
22	0x3d11d97e	0.035607807
23	0xbc33bee2	-0.010970803
24	0xbdad28d0	-0.0845505
25	0x3c496114	0.012291212
26	0x3c32164d	0.010869575
27	0xbc2b1a2c	-0.010443252
28	0x3dd22bac	0.10262236
29	0xbd1031d0	-0.035203755
30	0x3d8796bc	0.06620547
31	0xb907a380	-0.00012935512
32	0x3d619e86	0.05508282
33	0xbdb1be2b	-0.0867885
34	0xbdf875c7	-0.12131839
35	0x3de7f470	0.1132592
36	0xbd47f7b7	-0.048820224
37	0x3d98d0a8	0.07461673
38	0xbcb78b37	-0.02240525
39	0xbc8afb12	-0.016965423
40	0xbdc42cfc	-0.095788926
41	0xbd9dc827	-0.07704192
42	0xbda2c0b8	-0.079469144
43	0xbdd5a79c	-0.104323596
44	0xbdbe2d92	-0.092860356
45	0x3de890e6	0.11355762
46	0xbd66c7f4	-0.056343034
47	0x3d95f3c4	0.07321885
48	0xbdd8a071	-0.10577477
49	0xbda6d2ff	-0.08145713
50	0x3e007d0f	0.12547706
51	0xbdf38313	-0.11890235
52	0xbdb487cd	-0.088149644
53	0xbc3ca2b4	-0.011513401
54	0xbb3d2d5b	-0.0028866145
55	0xbddff0ce	-0.10934602
56	0x3dbf8430	0.09351385
57	0x3d9b8629	0.075939484
58	0xbd289524	-0.041157857
59	0x3d8057a1	0.06266714
60	0xbd1b4eeb	-0.03791706
61	0x3ca84f70	0.020545691
62	0xbdf4ec30	-0.11959112
63	0x3d83b873	0.06431665
64	0x3d1a285a	0.03763614
65	0xbc9cb2a2	-0.019128148
66	0x3d1e9b9b	0.038722616
67	0xbdf70506	-0.12061505
68	0xbd8246f2	-0.06361188
69	0xbd4c7c97	-0.049923506
70	0xbdf57f2a	-0.11987145
71	0xbd5ea146	-0.05435302
72	0xbc2ff47f	-0.010739445
73	0xbdbd9427	-0.092567734
74	0x3d7ef44f	0.06224471
75	0xbd22d48d	-0.039753485
76	0x3dc103fa	0.094245866
77	0xbb1287eb	-0.0022358845
78	0xbd276e75	-0.040876824
79	0xbdfac1b1	-0.12243975
80	0x3dc0e7b2	0.094191924
81	0x3d91242d	0.07086978
82	0xbc665740	-0.014058888
83	0x3d4057f6	0.046958886
84	0xbdef7048	-0.11691338
85	0xbd0a06d9	-0.033697937
86	0xbcd38cec	-0.025824033
87	0x3b3a96c9	0.0028471223
88	0xbcf8737f	-0.03032851
89	0x3db3fb9c	0.08788225
90	0xbd6f6a07	-0.058450725
91	0x3d449d63	0.04800166
92	0xbdaa2174	-0.08307162
93	0x3d7a3e84	0.061094776
94	0xbd1de9bf	-0.038552996
95	0x3b8c3f88	0.0042800345
96	0xbd7d4024	-0.061828747
97	0x3d2a77e5	0.041618247
98	0x3cf60a86	0.030034315
99	0x3dc2f129	0.09518654
100	0x3dd152f1	0.10220898
101	0xbd2cd919	-0.042199228
102	0x3dd82664	0.105541974
103	0x3c7d6fca	0.015468547
104	0xbdfc9946	-0.12333922
105	0xbd818df8	-0.063259065
106	0xbdab5b5c	-0.08367035
107	0x3dab63f7	0.08368676
108	0x3ca88ac2	0.020573977
109	0xbcbb2cdc	-0.022848539
110	0xbdd3de55	-0.10345141
111	0xbd77bafd	-0.06048106
112	0x3d2175f6	0.039419137
113	0x3c54cde1	0.0129885385
114	0xbdd6d4c7	-0.10489803
115	0xbd35f8ed	-0.044426847
116	0x3d8e4b53	0.06947961
117	0x3da4e8a9	0.08052189
118	0x3d74da44	0.059778467
119	0xbc72caa7	-0.014818824
120	0xbda43f71	-0.08019913
121	0x3dab0de4	0.08352259
122	0x3c71ca0c	0.014757644
123	0xbb89c8dd	-0.004204853
124	0x3c88814d	0.016663218
125	0x3d1fff4c	0.03906183
126	0xbdecfbd6	-0.115714714
127	0x3dadd35d	0.0848758
128	0xbcf7dc5a	-0.030256439
129	0xbdc92676	-0.09821789
130	0x3d2f5521	0.042805795
131	0xbd124658	-0.035711616
132	0x3dcaac84	0.09896186
133	0x3bf6d191	0.0075323065
134	0xbdceb74c	-0.10093555
135	0x3cbdf759	0.023189234
136	0xbdec6300	-0.1154232
137	0xbdf2717f	-0.11838054
138	0x3cd9bc52	0.026579056
139	0x3d8de39a	0.06928177
140	0x3bdd3edf	0.0067518796
141	0x3dcfb001	0.10140992
142	0xbbdcfa85	-0.0067437314
143	0xbd0f9edb	-0.035063606
144	0xbcd5f0e3	-0.02611584
145	0x3da9441c	0.08264944
146	0xbe00cd6b	-0.1257836
147	0xbd1c7790	-0.03819996
148	0xbc2657d9	-0.01015278
149	0xbd310750	-0.043219864
150	0xbdb38b2a	-0.08766778
151	0x3dd25f53	0.10272088
152	0x3d1e9703	0.038718235
153	0xbd65fa9e	-0.05614721
154	0xbdeb51c1	-0.11490203
155	0x3dc40368	0.09570962
156	0xbd939e0b	-0.07207879
157	0xbd7b0ea5	-0.061293263
158	0x3b944f3f	0.0045260484
159	0xbd3ff4bd	-0.04686426
160	0xbdec0a19	-0.115253635
161	0x3dd47b90	0.1037513
162	0x3c2465f1	0.01003407
163	0x3c412a4c	0.0117898695
164	0x3db3e86e	0.08784567
165	0x3d867074	0.065644175
166	0xbc5a6787	-0.013330347
167	0x3db17f8b	0.08666905
168	0x3cc05e3d	0.023482436
169	0x3c268f02	0.010165932
170	0xbe0a4ad5	-0.13505109
171	0xbbc4fc53	-0.0060115247
172	0x3ccd9362	0.025094692
173	0xbca7a10c	-0.020462535
174	0xbd549d17	-0.051907625
175	0x3dc59aa6	0.096486375
176	0xbc573fcd	-0.01313777
177	0xbd701c33	-0.058620643
178	0x3d7016f1	0.05861563
179	0xbcc4499d	-0.023960883
180	0xbce3593e	-0.027752515
181	0xbddd2efe	-0.10799979
182	0xbd437234	-0.047716334
183	0xbdfdae19	-0.12386722
184	0xbd84e2b1	-0.064885505
185	0xbd92586e	-0.07145773
186	0xbd835d59	-0.06414289
187	0xbdd1d64d	-0.10245953
188	0x3dccb0d1	0.099946626
189	0xbe0ea322	-0.13929418
190	0x3dc49b56	0.095999405
191	0xbc071190	-0.008243933
192	0x3d3c4fe0	0.045974612
193	0x3da59cc2	0.0808654
194	0xbcfe9057	-0.031074686
195	0x3dce656f	0.10077941
196	0x3cda62d9	0.026658462
197	0x3d2c981b	0.042137247
198	0xbbfa3f0e	-0.0076369112
199	0x3cbc2d06	0.022970688
200	0xbc04ca43	-0.008104864
201	0xbc75810b	-0.0149843795
202	0x3d0c8d6e	0.034314565
203	0x3d8d17d8	0.068893135
204	0xbcb0b6d1	-0.021571549
205	0x3c0dea0c	0.008661758
206	0x3be83701	0.007086635
207	0x3b96c6f0	0.004601352
208	0xbd6cf6cd	-0.057852555
209	0x3b58ad8d	0.0033062429
210	0xbdaaa013	-0.08331313
211	0x3daff16b	0.08590969
212	0xbe02d8db	-0.12778036
213	0x3dc25485	0.09488777
214	0x3c47e50f	0.012200608
215	0x3ca3ab6d	0.019979203
216	0x3d1af817	0.037834253
217	0x3d5596c0	0.05214572
218	0xbd4a2c16	-0.04935845
219	0x3b665457	0.0035145485
220	0x3d4119ea	0.047143854
221	0xbd46dbbf	-0.04854941
222	0xbcb7d570	-0.022440642
223	0x3c03207d	0.008003351
224	0xbd45e946	-0.04831817
225	0xbba5b97b	-0.0050575114
226	0x3d920064	0.07128981
227	0xbc14abef	-0.009074195
228	0x3d39a165	0.045319933
229	0x3d62533d	0.055255163
230	0x3c3152b9	0.010822945
231	0xbd1a4b3d	-0.03766941
232	0xbdeced4d	-0.11568699
233	0x3dc11c0b	0.09429177
234	0xbdf70dfe	-0.12063216
235	0xbdacadb0	-0.08431566
236	0xbcf002fe	-0.029298302
237	0xbd3dd9ba	-0.04635022
238	0xbd0f9b6b	-0.035060328
239	0x3d955dd1	0.07293285
240	0xbddc60c6	-0.107606456
241	0xbd0f5381	-0.034991745
242	0xbd2f7c78	-0.042843312
243	0xbc4c4c70	-0.012469396
244	0xbd8768af	-0.06611764
245	0xbdeb50b4	-0.11490002
246	0xbdd16c58	-0.10225743
247	0x3d66574c	0.056235597
248	0x3d156ea2	0.03648246
249	0xbd8953d9	-0.06705446
250	0x3d6ee749	0.05832604
251	0x3d9f2c01	0.07772065
252	0xbe0f1cf1	-0.13975884
253	0x3d7fb788	0.06243089
254	0x3d7fd31c	0.06245719
255	0x3d30a92e	0.043130092
